¡¾char 1¡¿
C:\Users\Tabulator\Desktop\pytorch_implementations\Chinese-Text-Classification-Pytorch>python run.py --model TextCNN
Loading data...
Vocab size: 4762
180000it [00:02, 76560.58it/s]
10000it [00:00, 81244.18it/s]
10000it [00:00, 56960.43it/s]
Time usage: 0:00:03
<bound method Module.parameters of Model(
  (embedding): Embedding(4762, 300)
  (convs): ModuleList(
    (0): Conv2d(1, 256, kernel_size=(2, 300), stride=(1, 1))
    (1): Conv2d(1, 256, kernel_size=(3, 300), stride=(1, 1))
    (2): Conv2d(1, 256, kernel_size=(4, 300), stride=(1, 1))
  )
  (dropout): Dropout(p=0.5)
  (fc): Linear(in_features=768, out_features=10, bias=True)
)>
Epoch [1/20]
Iter:      0,  Train Loss:   2.3,  Train Acc: 11.72%,  Val Loss:   2.7,  Val Acc: 10.68%,  Time: 0:00:01 *
Iter:    100,  Train Loss:  0.75,  Train Acc: 71.88%,  Val Loss:   0.7,  Val Acc: 78.15%,  Time: 0:00:07 *
Iter:    200,  Train Loss:  0.69,  Train Acc: 76.56%,  Val Loss:  0.55,  Val Acc: 83.21%,  Time: 0:00:12 *
Iter:    300,  Train Loss:   0.5,  Train Acc: 85.16%,  Val Loss:  0.49,  Val Acc: 84.61%,  Time: 0:00:17 *
…
 [  2   4  21   5 874  20  22   3  36  13]
 [  3  18   1  13   8 917  26   1   5   8]
 [  8   8  15   4  16  25 913   3   3   5]
 [  1   1   2   1   6   9   6 956   3  15]
 [  3   0   5   3  42   5   5   9 924   4]
 [  2   7   1   3  12  13   5  17  33 907]]
Time usage: 0:00:00

¡¾char 2¡¿
C:\Users\Tabulator\Desktop\pytorch_implementations\Chinese-Text-Classification-Pytorch>python run.py --model TextCNN --embedding random
Loading data...
Vocab size: 4762
180000it [00:02, 77391.93it/s]
10000it [00:00, 82843.74it/s]
10000it [00:00, 58406.32it/s]
Time usage: 0:00:03
<bound method Module.parameters of Model(
  (embedding): Embedding(4762, 300, padding_idx=4761)
  (convs): ModuleList(
    (0): Conv2d(1, 256, kernel_size=(2, 300), stride=(1, 1))
    (1): Conv2d(1, 256, kernel_size=(3, 300), stride=(1, 1))
    (2): Conv2d(1, 256, kernel_size=(4, 300), stride=(1, 1))
  )
  (dropout): Dropout(p=0.5)
  (fc): Linear(in_features=768, out_features=10, bias=True)
)>
Epoch [1/20]
Iter:      0,  Train Loss:   2.4,  Train Acc:  8.59%,  Val Loss:   2.3,  Val Acc: 21.64%,  Time: 0:00:01 *
Iter:    100,  Train Loss:  0.94,  Train Acc: 67.19%,  Val Loss:  0.69,  Val Acc: 78.81%,  Time: 0:00:07 *
Iter:    200,  Train Loss:  0.93,  Train Acc: 71.09%,  Val Loss:  0.58,  Val Acc: 81.90%,  Time: 0:00:12 *
Iter:    300,  Train Loss:  0.74,  Train Acc: 76.56%,  Val Loss:  0.53,  Val Acc: 83.65%,  Time: 0:00:17 *
…
Time usage: 0:00:00

¡¾word 1¡¿
C:\Users\Tabulator\Desktop\pytorch_implementations\Chinese-Text-Classification-Pytorch>python run.py --model TextCNN --word True
Loading data...
0it [00:00, ?it/s]Building prefix dict from the default dictionary ...
Loading model from cache C:\Users\TABULA~1\AppData\Local\Temp\jieba.cache
Loading model cost 0.655 seconds.
Prefix dict has been built succesfully.
180000it [00:17, 10267.07it/s]
Vocab size: 8074
180000it [00:18, 9822.05it/s]
10000it [00:01, 9546.63it/s]
10000it [00:00, 10155.86it/s]
Time usage: 0:00:38
<bound method Module.parameters of Model(
  (embedding): Embedding(8074, 300, padding_idx=8073)
  (convs): ModuleList(
    (0): Conv2d(1, 256, kernel_size=(2, 300), stride=(1, 1))
    (1): Conv2d(1, 256, kernel_size=(3, 300), stride=(1, 1))
    (2): Conv2d(1, 256, kernel_size=(4, 300), stride=(1, 1))
  )
  (dropout): Dropout(p=0.5)
  (fc): Linear(in_features=768, out_features=10, bias=True)
)>
Epoch [1/20]
Iter:      0,  Train Loss:   2.3,  Train Acc:  7.03%,  Val Loss:   2.8,  Val Acc: 13.98%,  Time: 0:00:01 *
Iter:    100,  Train Loss:   1.3,  Train Acc: 56.25%,  Val Loss:   1.1,  Val Acc: 64.85%,  Time: 0:00:07 *
Iter:    200,  Train Loss:   1.1,  Train Acc: 67.19%,  Val Loss:  0.92,  Val Acc: 70.73%,  Time: 0:00:12 *
Iter:    300,  Train Loss:  0.77,  Train Acc: 76.56%,  Val Loss:  0.82,  Val Acc: 74.15%,  Time: 0:00:17 *
…
¡¾word 2¡¿
C:\Users\Tabulator\Desktop\pytorch_implementations\Chinese-Text-Classification-Pytorch>python run.py --model TextCNN --word True (change min_freq to 40)
Loading data...
0it [00:00, ?it/s]Building prefix dict from the default dictionary ...
Loading model from cache C:\Users\TABULA~1\AppData\Local\Temp\jieba.cache
Loading model cost 0.662 seconds.
Prefix dict has been built succesfully.
180000it [00:17, 10303.65it/s]
Vocab size: 6384
180000it [00:18, 9918.14it/s]
10000it [00:01, 9660.21it/s]
10000it [00:00, 10056.53it/s]
Time usage: 0:00:38
<bound method Module.parameters of Model(
  (embedding): Embedding(6384, 300, padding_idx=6383)
  (convs): ModuleList(
    (0): Conv2d(1, 256, kernel_size=(2, 300), stride=(1, 1))
    (1): Conv2d(1, 256, kernel_size=(3, 300), stride=(1, 1))
    (2): Conv2d(1, 256, kernel_size=(4, 300), stride=(1, 1))
  )
  (dropout): Dropout(p=0.5)
  (fc): Linear(in_features=768, out_features=10, bias=True)
)>
Epoch [1/20]
Iter:      0,  Train Loss:   2.4,  Train Acc:  8.59%,  Val Loss:   2.8,  Val Acc: 14.54%,  Time: 0:00:01 *
Iter:    100,  Train Loss:   1.3,  Train Acc: 56.25%,  Val Loss:   1.1,  Val Acc: 63.84%,  Time: 0:00:07 *
Iter:    200,  Train Loss:   1.1,  Train Acc: 64.06%,  Val Loss:  0.92,  Val Acc: 70.63%,  Time: 0:00:12 *
Iter:    300,  Train Loss:  0.78,  Train Acc: 75.00%,  Val Loss:  0.82,  Val Acc: 73.86%,  Time: 0:00:17 *
…
C:\Users\Tabulator\Desktop\pytorch_implementations\Chinese-Text-Classification-Pytorch>python run.py --model TextCNN --word True (change min_freq to 20 & vocab limited to 10000)
Loading data...
0it [00:00, ?it/s]Building prefix dict from the default dictionary ...
Loading model from cache C:\Users\TABULA~1\AppData\Local\Temp\jieba.cache
Loading model cost 0.654 seconds.
Prefix dict has been built succesfully.
180000it [00:17, 10465.39it/s]
Vocab size: 10002
180000it [00:18, 9952.89it/s]
10000it [00:01, 9636.22it/s]
10000it [00:00, 10158.15it/s]
Time usage: 0:00:37
<bound method Module.parameters of Model(
  (embedding): Embedding(10002, 300, padding_idx=10001)
  (convs): ModuleList(
    (0): Conv2d(1, 256, kernel_size=(2, 300), stride=(1, 1))
    (1): Conv2d(1, 256, kernel_size=(3, 300), stride=(1, 1))
    (2): Conv2d(1, 256, kernel_size=(4, 300), stride=(1, 1))
  )
  (dropout): Dropout(p=0.5)
  (fc): Linear(in_features=768, out_features=10, bias=True)
)>
Epoch [1/20]
Iter:      0,  Train Loss:   2.3,  Train Acc:  9.38%,  Val Loss:   2.7,  Val Acc: 14.91%,  Time: 0:00:01 *
Iter:    100,  Train Loss:   1.3,  Train Acc: 55.47%,  Val Loss:   1.1,  Val Acc: 64.13%,  Time: 0:00:07 *
Iter:    200,  Train Loss:   1.1,  Train Acc: 62.50%,  Val Loss:  0.92,  Val Acc: 70.76%,  Time: 0:00:12 *
Iter:    300,  Train Loss:  0.82,  Train Acc: 72.66%,  Val Loss:  0.83,  Val Acc: 73.71%,  Time: 0:00:17 *
…
C:\Users\Tabulator\Desktop\pytorch_implementations\Chinese-Text-Classification-Pytorch>python run.py --model TextCNN --word True (change min_freq to 20 & vocab limited to 20000)
Loading data...
0it [00:00, ?it/s]Building prefix dict from the default dictionary ...
Loading model from cache C:\Users\TABULA~1\AppData\Local\Temp\jieba.cache
Loading model cost 0.655 seconds.
Prefix dict has been built succesfully.
180000it [00:17, 10511.65it/s]
Vocab size: 11216
180000it [00:18, 9994.83it/s]
10000it [00:01, 9608.96it/s]
10000it [00:00, 10188.28it/s]
Time usage: 0:00:37
<bound method Module.parameters of Model(
  (embedding): Embedding(11216, 300, padding_idx=11215)
  (convs): ModuleList(
    (0): Conv2d(1, 256, kernel_size=(2, 300), stride=(1, 1))
    (1): Conv2d(1, 256, kernel_size=(3, 300), stride=(1, 1))
    (2): Conv2d(1, 256, kernel_size=(4, 300), stride=(1, 1))
  )
  (dropout): Dropout(p=0.5)
  (fc): Linear(in_features=768, out_features=10, bias=True)
)>
Epoch [1/20]
Iter:      0,  Train Loss:   2.3,  Train Acc: 10.16%,  Val Loss:   2.8,  Val Acc: 14.58%,  Time: 0:00:01 *
Iter:    100,  Train Loss:   1.4,  Train Acc: 56.25%,  Val Loss:   1.1,  Val Acc: 64.34%,  Time: 0:00:07 *
Iter:    200,  Train Loss:   1.1,  Train Acc: 62.50%,  Val Loss:  0.91,  Val Acc: 70.91%,  Time: 0:00:12 *
Iter:    300,  Train Loss:  0.88,  Train Acc: 69.53%,  Val Loss:  0.82,  Val Acc: 74.09%,  Time: 0:00:17 *
…
 [  0   9  42  14 827  14  41   5  32  16]
 [  4  24   8  15  13 857  46   1   3  29]
 [  3   8  29  18  13  29 889   1   4   6]
 [  2  11   1   7   8   7  11 924   5  24]
 [  2   7   8   4  50   9  12  15 878  15]
 [  6  10   5  13  13  27  15  31  21 859]]
Time usage: 0:00:00

¡¾char 3¡¿
wangjl@serverx44:~/Chinese-Text-Classification-Pytorch$ python run.py --model TextCNN --embedding random
Loading data...
180000it [00:01, 151989.96it/s]
Vocab size: 2894
180000it [00:02, 68303.24it/s]
10000it [00:00, 35145.13it/s]
10000it [00:00, 76552.78it/s]
Time usage: 0:00:04
<bound method Module.parameters of Model(
  (embedding): Embedding(2894, 300, padding_idx=2893)
  (convs): ModuleList(
    (0): Conv2d(1, 256, kernel_size=(2, 300), stride=(1, 1))
    (1): Conv2d(1, 256, kernel_size=(3, 300), stride=(1, 1))
    (2): Conv2d(1, 256, kernel_size=(4, 300), stride=(1, 1))
  )
  (dropout): Dropout(p=0.5)
  (fc): Linear(in_features=768, out_features=10, bias=True)
)>
Epoch [1/20]
Iter:      0,  Train Loss:   2.3,  Train Acc: 12.50%,  Val Loss:   2.3,  Val Acc: 17.16%,  Time: 0:00:00 *
Iter:    100,  Train Loss:   1.0,  Train Acc: 67.97%,  Val Loss:  0.69,  Val Acc: 78.54%,  Time: 0:00:04 *
Iter:    200,  Train Loss:   1.2,  Train Acc: 64.84%,  Val Loss:  0.59,  Val Acc: 81.74%,  Time: 0:00:08 *
Iter:    300,  Train Loss:   0.7,  Train Acc: 78.12%,  Val Loss:  0.53,  Val Acc: 83.63%,  Time: 0:00:12 *
…
